…
om /usr/local/lib/python3.6/dist-packages/keras/backend/tensorflow_backend.py:3733: calling dropout (from tensorflow.python.ops.nn_ops) with keep_prob is deprecated and will be removed in a future version.\n","Instructions for updating:\n","Please use `rate` instead of `keep_prob`. Rate should be set to `rate = 1 - keep_prob`.\n","Model: \"sequential_1\"\n","_________________________________________________________________\n","Layer (type)                 Output Shape              Param #   \n","=================================================================\n","conv2d_1 (Conv2D)            (None, 48, 48, 64)        640       \n","_________________________________________________________________\n","batch_normalization_1 (Batch (None, 48, 48, 64)        256       \n","_________________________________________________________________\n","activation_1 (Activation)    (None, 48, 48, 64)        0         \n","_________________________________________________________________\n","max_pooling2d_1 (MaxPooling2 (None, 24, 24, 64)        0         \n","_________________________________________________________________\n","dropout_1 (Dropout)          (None, 24, 24, 64)        0         \n","_________________________________________________________________\n","conv2d_2 (Conv2D)            (None, 24, 24, 128)       204928    \n","_________________________________________________________________\n","batch_normalization_2 (Batch (None, 24, 24, 128)       512       \n","_________________________________________________________________\n","activation_2 (Activation)    (None, 24, 24, 128)       0         \n","_________________________________________________________________\n","max_pooling2d_2 (MaxPooling2 (None, 12, 12, 128)       0         \n","_________________________________________________________________\n","dropout_2 (Dropout)          (None, 12, 12, 128)       0         \n","_________________________________________________________________\n","flatten_1 (Flatten)          (None, 18432)             0         \n","_________________________________________________________________\n","dense_1 (Dense)              (None, 256)               4718848   \n","_________________________________________________________________\n","batch_normalization_3 (Batch (None, 256)               1024      \n","_________________________________________________________________\n","activation_3 (Activation)    (None, 256)               0         \n","_________________________________________________________________\n","dropout_3 (Dropout)          (None, 256)               0         \n","_________________________________________________________________\n","dropout_4 (Dropout)          (None, 256)               0         \n","_________________________________________________________________\n","dense_2 (Dense)              (None, 2)                 514       \n","=================================================================\n","Total params: 4,926,722\n","Trainable params: 4,925,826\n","Non-trainable params: 896\n","_________________________________________________________________\n"],"name":"stdout"}]},{"cell_type":"code","metadata":{"id":"OLhJP46obiRV","colab_type":"code","colab":{"base_uri":"https://localhost:8080/","height":70},"outputI
…
